Train shape: (9382, 60, 65), (9382, 3)
Class Weights: {0: np.float64(0.7528486599261756), 1: np.float64(5.889516635279347), 2: np.float64(0.6658150592576823)}

Model Summary:
Model: "sequential"
┏━━━━━━━━━━━━━━━━━━━━━━━━━━━━━━━━━┳━━━━━━━━━━━━━━━━━━━━━━━━┳━━━━━━━━━━━━━━━┓
┃ Layer (type)                    ┃ Output Shape           ┃       Param # ┃
┡━━━━━━━━━━━━━━━━━━━━━━━━━━━━━━━━━╇━━━━━━━━━━━━━━━━━━━━━━━━╇━━━━━━━━━━━━━━━┩
│ bidirectional (Bidirectional)   │ (None, 60, 128)        │        66,560 │
├─────────────────────────────────┼────────────────────────┼───────────────┤
│ batch_normalization             │ (None, 60, 128)        │           512 │
│ (BatchNormalization)            │                        │               │
├─────────────────────────────────┼────────────────────────┼───────────────┤
│ dropout (Dropout)               │ (None, 60, 128)        │             0 │
├─────────────────────────────────┼────────────────────────┼───────────────┤
│ bidirectional_1 (Bidirectional) │ (None, 64)             │        41,216 │
├─────────────────────────────────┼────────────────────────┼───────────────┤
│ batch_normalization_1           │ (None, 64)             │           256 │
│ (BatchNormalization)            │                        │               │
├─────────────────────────────────┼────────────────────────┼───────────────┤
│ dropout_1 (Dropout)             │ (None, 64)             │             0 │
├─────────────────────────────────┼────────────────────────┼───────────────┤
│ dense (Dense)                   │ (None, 32)             │         2,080 │
├─────────────────────────────────┼────────────────────────┼───────────────┤
│ dense_1 (Dense)                 │ (None, 3)              │            99 │
└─────────────────────────────────┴────────────────────────┴───────────────┘
 Total params: 110,723 (432.51 KB)
 Trainable params: 110,339 (431.01 KB)
 Non-trainable params: 384 (1.50 KB)

Model saved to reversal_model.keras

=== Global Test Set Evaluation ===
Global Test Accuracy: 0.4062
              precision    recall  f1-score   support

Bearish (-1)       0.48      0.41      0.44       273
…
